…
          (bn1): SyncBatchNorm(128, eps=0.001, momentum=0.01, affine=True, track_running_stats=True)
          (relu): ReLU()
          (conv2): SubMConv3d(128, 128, kernel_size=[3, 3, 3], stride=[1, 1, 1], padding=[1, 1, 1], dilation=[1, 1, 1], output_padding=[0, 0, 0], algo=ConvAlgo.MaskImplicitGemm)
          (bn2): SyncBatchNorm(128, eps=0.001, momentum=0.01, affine=True, track_running_stats=True)
        )
      )
      (stage): SPEncoder(
        (blocks): ModuleList(
          (0): SMSA(
            (forward_blocks): ModuleList(
              (0-1): 2 x Block(
                (mixer): Mamba(
                  (in_proj): Linear(in_features=128, out_features=512, bias=False)
                  (conv1d): Conv1d(256, 256, kernel_size=(4,), stride=(1,), padding=(3,), groups=256)
                  (act): SiLU()
                  (x_proj): Linear(in_features=256, out_features=40, bias=False)
                  (dt_proj): Linear(in_features=8, out_features=256, bias=True)
                  (out_proj): Linear(in_features=256, out_features=128, bias=False)
                )
                (norm): RMSNorm()
              )
            )
            (backward_blocks): ModuleList(
              (0-1): 2 x Block(
                (mixer): Mamba(
                  (in_proj): Linear(in_features=128, out_features=512, bias=False)
                  (conv1d): Conv1d(256, 256, kernel_size=(4,), stride=(1,), padding=(3,), groups=256)
                  (act): SiLU()
                  (x_proj): Linear(in_features=256, out_features=40, bias=False)
                  (dt_proj): Linear(in_features=8, out_features=256, bias=True)
                  (out_proj): Linear(in_features=256, out_features=128, bias=False)
                )
                (norm): RMSNorm()
              )
            )
            (forward_norms): ModuleList(
              (0-1): 2 x LayerNorm((128,), eps=1e-05, elementwise_affine=True)
            )
            (backward_norms): ModuleList(
              (0-1): 2 x LayerNorm((128,), eps=1e-05, elementwise_affine=True)
            )
            (output_norms): ModuleList(
              (0-1): 2 x LayerNorm((128,), eps=1e-05, elementwise_affine=True)
            )
            (drop_path): DropPath(drop_prob=0.200)
            (locals): ModuleList(
              (0-2): 3 x ResidualSparseBasicBlock(
                (conv1): SubMConv3d(128, 128, kernel_size=[3, 3, 3], stride=[1, 1, 1], padding=[1, 1, 1], dilation=[1, 1, 1], output_padding=[0, 0, 0], algo=ConvAlgo.MaskImplicitGemm)
                (bn1): LayerNorm((128,), eps=1e-05, elementwise_affine=True)
                (act): GELU(approximate='none')
              )
            )
            (input_layer): SerializationLayer(
              (serialization): ZOrderSerialization()
            )
          )
          (1): SMSA(
            (forward_blocks): ModuleList(
              (0-1): 2 x Block(
                (mixer): Mamba(
                  (in_proj): Linear(in_features=128, out_features=512, bias=False)
                  (conv1d): Conv1d(256, 256, kernel_size=(4,), stride=(1,), padding=(3,), groups=256)
                  (act): SiLU()
                  (x_proj): Linear(in_features=256, out_features=40, bias=False)
                  (dt_proj): Linear(in_features=8, out_features=256, bias=True)
                  (out_proj): Linear(in_features=256, out_features=128, bias=False)
                )
                (norm): RMSNorm()
              )
            )
            (backward_blocks): ModuleList(
              (0-1): 2 x Block(
                (mixer): Mamba(
                  (in_proj): Linear(in_features=128, out_features=512, bias=False)
                  (conv1d): Conv1d(256, 256, kernel_size=(4,), stride=(1,), padding=(3,), groups=256)
                  (act): SiLU()
                  (x_proj): Linear(in_features=256, out_features=40, bias=False)
                  (dt_proj): Linear(in_features=8, out_features=256, bias=True)
                  (out_proj): Linear(in_features=256, out_features=128, bias=False)
                )
                (norm): RMSNorm()
              )
            )
            (forward_norms): ModuleList(
              (0-1): 2 x LayerNorm((128,), eps=1e-05, elementwise_affine=True)
            )
            (backward_norms): ModuleList(
              (0-1): 2 x LayerNorm((128,), eps=1e-05, elementwise_affine=True)
            )
            (output_norms): ModuleList(
              (0-1): 2 x LayerNorm((128,), eps=1e-05, elementwise_affine=True)
            )
            (drop_path): DropPath(drop_prob=0.200)
            (locals): ModuleList(
              (0-2): 3 x ResidualSparseBasicBlock(
                (conv1): SubMConv3d(128, 128, kernel_size=[3, 3, 3], stride=[1, 1, 1], padding=[1, 1, 1], dilation=[1, 1, 1], output_padding=[0, 0, 0], algo=ConvAlgo.MaskImplicitGemm)
                (bn1): LayerNorm((128,), eps=1e-05, elementwise_affine=True)
                (act): GELU(approximate='none')
              )
            )
            (input_layer): SerializationLayer(
              (serialization): HilbertSerialization()
            )
          )
          (2): SMSA(
            (forward_blocks): ModuleList(
              (0-1): 2 x Block(
                (mixer): Mamba(
                  (in_proj): Linear(in_features=128, out_features=512, bias=False)
                  (conv1d): Conv1d(256, 256, kernel_size=(4,), stride=(1,), padding=(3,), groups=256)
                  (act): SiLU()
                  (x_proj): Linear(in_features=256, out_features=40, bias=False)
                  (dt_proj): Linear(in_features=8, out_features=256, bias=True)
                  (out_proj): Linear(in_features=256, out_features=128, bias=False)
                )
                (norm): RMSNorm()
              )
            )
            (backward_blocks): ModuleList(
              (0-1): 2 x Block(
                (mixer): Mamba(
                  (in_proj): Linear(in_features=128, out_features=512, bias=False)
                  (conv1d): Conv1d(256, 256, kernel_size=(4,), stride=(1,), padding=(3,), groups=256)
                  (act): SiLU()
                  (x_proj): Linear(in_features=256, out_features=40, bias=False)
                  (dt_proj): Linear(in_features=8, out_features=256, bias=True)
                  (out_proj): Linear(in_features=256, out_features=128, bias=False)
                )
                (norm): RMSNorm()
              )
            )
            (forward_norms): ModuleList(
              (0-1): 2 x LayerNorm((128,), eps=1e-05, elementwise_affine=True)
            )
            (backward_norms): ModuleList(
              (0-1): 2 x LayerNorm((128,), eps=1e-05, elementwise_affine=True)
            )
            (output_norms): ModuleList(
              (0-1): 2 x LayerNorm((128,), eps=1e-05, elementwise_affine=True)
            )
            (drop_path): DropPath(drop_prob=0.200)
            (locals): ModuleList(
              (0-2): 3 x ResidualSparseBasicBlock(
                (conv1): SubMConv3d(128, 128, kernel_size=[3, 3, 3], stride=[1, 1, 1], padding=[1, 1, 1], dilation=[1, 1, 1], output_padding=[0, 0, 0], algo=ConvAlgo.MaskImplicitGemm)
                (bn1): LayerNorm((128,), eps=1e-05, elementwise_affine=True)
                (act): GELU(approximate='none')
              )
            )
            (input_layer): SerializationLayer(
              (serialization): FlattenWindowsSerialization()
            )
          )
        )
        (embeddings): ModuleList(
          (0-2): 3 x MSSubConvEmbeddingLearned(
            (stem): ModuleList(
              (0-2): 3 x SparseBasicBlock(
…
        )
      )
      (shared_conv): SparseSequential(
        (0): SubMConv2d(128, 128, kernel_size=[3, 3], stride=[1, 1], padding=[1, 1], dilation=[1, 1], output_padding=[0, 0], bias=False, algo=ConvAlgo.MaskImplicitGemm)
        (1): SyncBatchNorm(128, eps=1e-05, momentum=0.1, affine=True, track_running_stats=True)
        (2): ReLU()
      )
    )
    (map_to_bev_module): None
    (pfe): None
    (backbone_2d): None
    (dense_head): TransFusionHead(
      (loss_cls): SigmoidFocalClassificationLoss()
      (loss_bbox): L1Loss()
      (loss_heatmap): GaussianFocalLoss()
      (shared_conv): Conv2d(128, 128, kernel_size=(3, 3), stride=(1, 1), padding=(1, 1))
      (heatmap_head): Sequential(
        (0): BasicBlock2D(
          (conv): Conv2d(128, 128, kernel_size=(3, 3), stride=(1, 1), padding=(1, 1))
          (bn): SyncBatchNorm(128, eps=1e-05, momentum=0.1, affine=True, track_running_stats=True)
          (relu): ReLU(inplace=True)
        )
        (1): Conv2d(128, 10, kernel_size=(3, 3), stride=(1, 1), padding=(1, 1))
      )
      (class_encoding): Conv1d(10, 128, kernel_size=(1,), stride=(1,))
      (decoder): TransformerDecoderLayer(
        (self_attn): MultiheadAttention(
          (out_proj): NonDynamicallyQuantizableLinear(in_features=128, out_features=128, bias=True)
        )
        (multihead_attn): MultiheadAttention(
          (out_proj): NonDynamicallyQuantizableLinear(in_features=128, out_features=128, bias=True)
        )
        (linear1): Linear(in_features=128, out_features=256, bias=True)
        (dropout): Dropout(p=0.1, inplace=False)
        (linear2): Linear(in_features=256, out_features=128, bias=True)
        (norm1): LayerNorm((128,), eps=1e-05, elementwise_affine=True)
        (norm2): LayerNorm((128,), eps=1e-05, elementwise_affine=True)
        (norm3): LayerNorm((128,), eps=1e-05, elementwise_affine=True)
        (dropout1): Dropout(p=0.1, inplace=False)
        (dropout2): Dropout(p=0.1, inplace=False)
        (dropout3): Dropout(p=0.1, inplace=False)
        (self_posembed): PositionEmbeddingLearned(
          (position_embedding_head): Sequential(
            (0): Conv1d(2, 128, kernel_size=(1,), stride=(1,))
            (1): SyncBatchNorm(128, eps=1e-05, momentum=0.1, affine=True, track_running_stats=True)
            (2): ReLU(inplace=True)
            (3): Conv1d(128, 128, kernel_size=(1,), stride=(1,))
          )
        )
        (cross_posembed): PositionEmbeddingLearned(
          (position_embedding_head): Sequential(
            (0): Conv1d(2, 128, kernel_size=(1,), stride=(1,))
            (1): SyncBatchNorm(128, eps=1e-05, momentum=0.1, affine=True, track_running_stats=True)
            (2): ReLU(inplace=True)
            (3): Conv1d(128, 128, kernel_size=(1,), stride=(1,))
          )
        )
      )
      (prediction_head): SeparateHead_Transfusion(
        (center): Sequential(
          (0): Sequential(
            (0): Conv1d(128, 64, kernel_size=(1,), stride=(1,))
            (1): SyncBatchNorm(64, eps=1e-05, momentum=0.1, affine=True, track_running_stats=True)
            (2): ReLU()
          )
          (1): Conv1d(64, 2, kernel_size=(1,), stride=(1,))
        )
        (height): Sequential(
          (0): Sequential(
            (0): Conv1d(128, 64, kernel_size=(1,), stride=(1,))
            (1): SyncBatchNorm(64, eps=1e-05, momentum=0.1, affine=True, track_running_stats=True)
            (2): ReLU()
          )
          (1): Conv1d(64, 1, kernel_size=(1,), stride=(1,))
        )
        (dim): Sequential(
          (0): Sequential(
            (0): Conv1d(128, 64, kernel_size=(1,), stride=(1,))
            (1): SyncBatchNorm(64, eps=1e-05, momentum=0.1, affine=True, track_running_stats=True)
            (2): ReLU()
          )
          (1): Conv1d(64, 3, kernel_size=(1,), stride=(1,))
        )
        (rot): Sequential(
          (0): Sequential(
            (0): Conv1d(128, 64, kernel_size=(1,), stride=(1,))
            (1): SyncBatchNorm(64, eps=1e-05, momentum=0.1, affine=True, track_running_stats=True)
            (2): ReLU()
          )
          (1): Conv1d(64, 2, kernel_size=(1,), stride=(1,))
        )
        (vel): Sequential(
          (0): Sequential(
            (0): Conv1d(128, 64, kernel_size=(1,), stride=(1,))
            (1): SyncBatchNorm(64, eps=1e-05, momentum=0.1, affine=True, track_running_stats=True)
            (2): ReLU()
          )
          (1): Conv1d(64, 2, kernel_size=(1,), stride=(1,))
        )
        (iou): Sequential(
          (0): Sequential(
            (0): Conv1d(128, 64, kernel_size=(1,), stride=(1,))
            (1): SyncBatchNorm(64, eps=1e-05, momentum=0.1, affine=True, track_running_stats=True)
            (2): ReLU()
          )
          (1): Conv1d(64, 1, kernel_size=(1,), stride=(1,))
        )
        (heatmap): Sequential(
          (0): Sequential(
            (0): Conv1d(128, 64, kernel_size=(1,), stride=(1,))
            (1): SyncBatchNorm(64, eps=1e-05, momentum=0.1, affine=True, track_running_stats=True)
            (2): ReLU()
          )
          (1): Conv1d(64, 10, kernel_size=(1,), stride=(1,))
        )
      )
    )
    (point_head): None
    (roi_head): None
  )
)
2025-09-04 09:31:22,565   INFO  **********************Start training sparse_models/sparse_former_base(default)**********************
epochs:   0%|          | 0/36 [00:00<?, ?it/s]
train:   0%|          | 0/1759 [00:00<?, ?it/s][A/mnt/csi-data-aly/user/hongfeizhang/mypaper/SparseForme
…
